python-training-pipeline/models/mlp.onnx (onnx, 916 bytes, 4 tensors)

net.0.weight f4 [16, 3]
0	0xbf033992	-0.5125972
1	0xbf04de38	-0.5190158
2	0x3c702668	0.014657594
3	0x3ec13d2d	0.37741986
4	0xbcd1016d	-0.025513375
5	0xbed7290e	-0.4202351
6	0x3d847b23	0.06468799
7	0x3d6c085d	0.057625163
8	0xbef54f8f	-0.4791226
9	0xbe66fc0d	-0.22557087
10	0x3e5b01e7	0.21387444
11	0xbec9733a	-0.39345723
12	0xbf0c36c8	-0.5477109
13	0xbc785d7c	-0.015159007
14	0x3e20fbb0	0.15721011
15	0xbe5e3616	-0.2170032
16	0xbecd88c2	-0.401434
17	0xbd4c49af	-0.049874958
18	0xbd64c341	-0.05585027
19	0xbf0a96f6	-0.541366
20	0x3e8d6e10	0.27623034
21	0xbe68f251	-0.22748686
22	0xbe91c2fd	-0.28469077
23	0xbe8648ac	-0.2622732
24	0xbd370f3f	-0.044692274
25	0xbf040e02	-0.51583874
26	0x3eeb0b86	0.4590723
27	0xbecd5dea	-0.40110713
28	0x3ede32f5	0.43398252
29	0x3edb41f7	0.42823765
30	0xbe5e0f83	-0.21685605
31	0x3eb374d7	0.3505008
32	0xbedc4720	-0.43023014
33	0x3f0966f1	0.536727
34	0xbf086573	-0.532798
35	0x3d5a2e77	0.05326697
36	0x3e5ab474	0.213579
37	0x3ec108ed	0.37702122
38	0x3f029348	0.51005983
39	0xbec5fdfe	-0.38670343
40	0xbedaf167	-0.427623
41	0x3dc358ed	0.095384456
42	0x3dad4153	0.08459725
43	0x3e42b99f	0.19016121
44	0x3e0bf4a8	0.13667548
45	0xbdbc6011	-0.09198011
46	0xbe6e3f7d	-0.23266406
47	0xbf063dae	-0.52437866

net.0.bias f4 [16]
0	0xbf05fa7e	-0.52335346
1	0xbe7f64f6	-0.24940857
2	0x3ea04de0	0.31309414
3	0x3f107c05	0.5643924
4	0x3eb0253f	0.34403417
5	0xbeefad10	-0.46811724
6	0xbec30ae3	-0.38094243
7	0xbf0a643e	-0.5405921
8	0xbea0e11f	-0.31421754
9	0x3e408e3b	0.18804257
10	0xbd40c89b	-0.047066312
11	0xbef67b75	-0.48141065
12	0xbe6f12ed	-0.23347063
13	0xbed3f422	-0.41397196
14	0x3ea64343	0.32473192
15	0xbedf4e85	-0.43614593

net.2.weight f4 [2, 16]
0	0xbab5c4b5	-0.0013867827
1	0xbdba2be4	-0.09090403
2	0x3e607bb4	0.21922189
3	0xbe04f459	-0.12983836
4	0x3e978543	0.29593858
5	0x3e82ccb4	0.255468
6	0xbdd1dc87	-0.102471404
7	0xbde5516e	-0.11197172
8	0xbd44fa8e	-0.04809051
9	0xbe6a5b20	-0.22886324
10	0xbe338423	-0.17530875
11	0xbcd89eed	-0.02644297
12	0xbe6c240d	-0.23060627
13	0xbe152086	-0.14563188
14	0x3df560ab	0.119813286
15	0xbcafa1da	-0.021439482
16	0xbc56b000	-0.013103485
17	0x3df712f8	0.12064165
18	0xbe00b625	-0.12569483
19	0x3e5986b9	0.21242799
20	0x3de70667	0.11280518
21	0xbe7ca81a	-0.246735
22	0xbe608a56	-0.21927771
23	0x3e3808b8	0.17972076
24	0x3dc5e4c6	0.09662776
25	0xbe6fdf4d	-0.23425026
26	0x3ba01b12	0.0048860395
27	0x3e568eab	0.20952861
28	0xbdf7a12f	-0.1209129
29	0xbc7259f6	-0.014791956
30	0xbdf8749a	-0.12131615
31	0x3e2aecc9	0.16691889

net.2.bias f4 [2]
0	0xbe7823e8	-0.24232447
1	0xbe6c6b24	-0.23087746
